calibration_params.npz (npz, 2522 bytes, 4 tensors)

camera_matrix f8 [3, 3]
000000 47 4b e9 92 7d 0e 84 40 00 00 00 00 00 00 00 00
       641.8113153673265 0.0
000010 f3 1c b3 98 68 2c 6c 40 00 00 00 00 00 00 00 00
       225.38776812537216 0.0
000020 1c 7d 9c d4 3a e1 83 40 98 13 7f 7c cc 84 76 40
       636.1537258363419 360.29992341651223
000030 00 00 00 00 00 00 00 00 00 00 00 00 00 00 00 00
       0.0 0.0
000040 00 00 00 00 00 00 f0 3f
       1.0

dist_coeffs f8 [1, 5]
000000 a6 80 dc 9c 90 94 98 3f 6b 2e 45 6d b0 11 be bf
       0.024004230093055988 -0.11745741527300317
000010 13 4f 8e 99 40 7a 47 3f f5 38 17 29 84 0a 7a 3f
       0.0007164779118391272 0.0063576853294320295
000020 49 c5 bc ce 61 18 b4 3f
       0.07849704072284171

rvecs f8 [29, 3, 1]
000000 f3 6a 72 1f 8a 07 cf bf 56 30 dc c0 c2 d6 d4 bf
       -0.24241758857245763 -0.32560795625682226
000010 81 9f 90 09 c5 fc f7 3f 78 9f a3 f4 7c 3f ce bf
       1.4992113469724873 -0.23631250329276177
000020 af e2 da a6 2d 6a d4 bf 49 6a b8 bb e7 f8 f7 3f
       -0.3189806107944077 1.4982678730799697
000030 6b 5a 58 22 e7 71 cd bf bd 2f d6 6c bc 17 d4 bf
       -0.23003853966720852 -0.313948732648665
000040 6a 93 d7 0c a4 f9 f7 3f 79 20 24 60 2f cd cc bf
       1.4984474660534155 -0.22501175112143182
000050 56 2b f8 fa 46 b6 d3 bf 39 a0 76 3c ab fa f7 3f
       -0.30800032147151535 1.498698459801757
000060 8f 02 46 a2 df 7c cc bf eb f8 10 38 f8 17 d3 bf
       -0.2225608389235458 -0.29833798861717636
000070 ff da 41 5a 17 f3 f7 3f 72 ed 7f 8a 3c 52 d1 bf
       1.4968484426187272 -0.270644316915159
000080 91 b2 3a 69 6c b0 cf bf b6 7f 50 81 60 ad f7 3f
       -0.24757151735447683 1.4798283625932362
000090 5c a6 fd ef 77 87 d6 bf e8 8b e8 9d ed 0f c6 bf
       -0.35201834141353117 -0.17236108980532028
0000a0 95 ab 0e 19 f4 27 f7 3f 15 6f 18 30 d1 c4 e1 bf
       1.4472542742539407 -0.5552755298008117
0000b0 c4 e5 a8 ec 48 c3 96 bf 90 08 b7 c4 8f 9a f6 3f
       -0.022229327625813658 1.4127347644976318
0000c0 9f b1 77 c0 99 e2 e4 bf 19 80 cc 4c bf 22 b6 3f
       -0.652661205208961 0.08646770119639803
0000d0 f5 de 12 91 8f 53 f6 3f 36 27 50 db c2 b3 e5 bf
       1.3954005877439475 -0.6781935008486701
0000e0 8a 5e 69 ed 59 0a be 3f 85 72 14 cc d0 52 f6 3f
       0.11734544798070537 1.3952186557645814
0000f0 33 8e 3a 9e 9b 1a e6 bf 14 e6 c0 f7 74 ee c1 3f
       -0.6907480326085021 0.14008962724055662
000100 f8 9c 28 01 82 53 f6 3f f0 a5 74 78 7e 60 e6 bf
       1.3953876538524224 -0.6992790558480788
000110 9d 5d 83 d6 78 39 c4 3f ac d8 25 fc d5 49 f6 3f
       0.15800390695833935 1.393026337578287
000120 d5 14 2a 0b 73 15 e6 bf 22 cb b9 71 be 43 c3 3f
       -0.6901183336309723 0.1505048804570715
000130 f2 a3 82 d9 ea 48 f6 3f a5 cc 77 44 67 5b e4 bf
       1.392802095079102 -0.6361576401963204
000140 8e 3a 8b 09 08 07 b8 3f 03 fe a2 30 3e 65 f6 3f
       0.09385729058269929 1.3997175121184007
000150 28 7b 4d c1 24 b0 df bf 9e c5 77 85 30 ed a5 bf
       -0.4951259505959791 -0.042825237553084636
000160 be 0d e0 f6 8b 02 f7 3f ef 7f 36 f5 d0 68 95 bf
       1.438121761661804 -0.02090765473042205
000170 70 3f 63 dc 47 ce e1 bf 45 cc ca 26 ce 68 f8 3f
       -0.5564307503172881 1.5255872264213093
000180 a5 81 f1 43 22 2f ba 3f d6 f0 bd b5 f0 28 e6 bf
       0.1022817054631618 -0.6924975919387417
000190 4f 8c ba bc 65 6b f8 3f d6 d9 2d 1d c7 4f cb 3f
       1.526220071050165 0.21337212490807528
0001a0 82 62 7a e2 86 8d ea bf ec a9 bf f8 34 70 f8 3f
       -0.8297762320899695 1.527394267725522
0001b0 cc f2 6a af 55 8f d2 3f 73 a2 59 28 24 d6 ed bf
       0.2899984562935003 -0.9323902881706786
0001c0 83 4a 77 5b e8 63 f8 3f 95 9e 56 b3 e4 ab d4 3f
       1.5243915150537368 0.3229915381766458
0001d0 b5 85 e9 83 b8 c1 ee bf be 66 f5 e8 fb 87 f8 3f
       -0.9611475540552222 1.5331992244668267
0001e0 ab 21 b7 d2 e0 b4 d5 3f 83 1e aa ba 0b 31 ef bf
       0.339164930130688 -0.974737038211018
0001f0 a0 b6 c4 ca ac a2 f8 3f d6 c9 e5 4b 65 a8 d5 3f
       1.5397155686036186 0.33840305721164776
000200 26 02 3c 05 c4 25 ee bf d2 26 07 aa 95 b1 f8 3f
       -0.9421100713953521 1.5433556215015654
000210 b3 9c 9a 4f 9d c2 d4 3f e8 e7 b6 a2 cb 81 ec bf
       0.3243783261663779 -0.8908441713349449
000220 b6 56 94 c9 54 51 f8 3f 93 98 40 57 21 f4 e1 bf
       1.5198562502095405 -0.5610510543963464
000230 00 a9 77 50 e7 bb e9 bf 68 34 c4 2f 3e bd f4 3f
       -0.8041874477032991 1.2962018838764156
000240 f4 f9 e4 cd 27 f0 e3 bf 55 df 4d 5b 21 52 ea bf
       -0.623065855157448 -0.8225256713185255
000250 d2 70 7a b1 92 df f4 3f c1 fc 36 05 44 e6 e4 bf
       1.304583256983325 -0.653108606515069
000260 61 2d 93 b8 48 2d ea bf e4 b3 a9 2b 21 fb f4 3f
       -0.8180278401354536 1.3113109307844235
000270 bf a1 ac 35 df bc e4 bf 45 a8 9a e1 a0 54 e9 bf
       -0.648055653412534 -0.7915806204157511
000280 0b 1a ee d8 24 38 f5 3f 51 34 1e 01 3d 81 bc 3f
       1.3262070154029313 0.11134701993269515
000290 6d 3e cf e2 4e ad 4d 3f f3 bd a5 9b 65 a5 f8 3f
       0.0009056697068618565 1.5403801040628167
0002a0 02 99 a5 b0 68 97 b7 3f b6 47 59 67 9b 65 96 bf
       0.09215406716029764 -0.021871975119502195
0002b0 f1 dc 63 41 3c 9d f8 3f
       1.5383875421810524

tvecs f8 [29, 3, 1]
000000 d9 1c 46 e1 9a 67 45 40 67 bd 37 57 33 e8 55 c0
       42.80941406177016 -87.62813358729692
000010 de c5 09 e5 f8 70 75 40 74 05 17 e5 5e 48 46 40
       343.0607653028254 44.565395961991186
000020 6e c0 c1 f9 98 ff 55 c0 a3 0a 39 6a 9a 51 75 40
       -87.99371189042151 341.10019895822387
000030 c4 95 6c 05 d9 94 48 40 f4 1a d0 e7 c0 f9 55 c0
       49.162872961063414 -87.90239901850492
000040 ad c9 f4 9a 74 36 75 40 a5 ea 13 b6 f6 bd 49 40
       339.4034680902503 51.48409152958383
000050 b5 dd d7 0f 40 c7 55 c0 4a 36 cc 2b e7 30 75 40
       -87.1132850273196 339.05643825311984
000060 5b 93 14 1d 41 30 4a 40 e8 77 b6 c7 9e 17 56 c0
       52.376987109228786 -88.36906616992167
000070 f0 40 0f e1 07 07 75 40 b6 2b 8d 78 bf 7d 49 40
       336.4394236179205 50.98240572827437
000080 1a 23 4d 38 35 be 51 c0 8c 14 dc 55 2c 38 75 40
       -70.97199828656122 339.51082406967976
000090 ce 03 90 04 5c b6 42 40 f5 43 2c e7 71 ef 4d c0
       37.424683161086804 -59.87066354428672
0000a0 e5 a9 17 da 96 14 75 40 71 92 b3 a9 83 1d 24 40
       337.28682908290494 10.057645133181014
0000b0 ac 47 c3 5c d7 21 43 c0 88 53 92 b8 24 bc 77 40
       -38.264384837485835 379.75896508368214
0000c0 b3 bf 6b 97 26 df 27 40 19 1e c8 6c f0 07 49 c0
       11.935841304686482 -50.062024686540276
0000d0 74 ad 66 ad 31 28 78 40 b0 ad ab f5 47 99 38 40
       386.5121282587854 24.598754267133415
0000e0 3d 43 a4 8b a1 23 54 c0 09 8e 79 b6 52 71 78 40
       -80.55673495332026 391.0826935528026
0000f0 37 d5 e9 74 b6 5f 37 40 16 e1 a9 24 06 cc 55 c0
       23.373877818191627 -87.18787495221872
000100 ba fb f2 25 a4 8f 78 40 04 75 b1 0a e7 28 39 40
       392.97757525363306 25.159775417637334
000110 a2 9f e0 6b 43 0e 55 c0 7d 50 24 fb 39 c7 78 40
       -84.22286507545371 396.4516555231601
000120 0b 44 78 3f 34 10 31 40 2c f6 91 dc b6 cc 58 c0
       17.063297240125433 -99.19866098646224
000130 cd f7 8b 84 29 e8 78 40 1a 60 db 9e d4 d3 20 40
       398.5101361720561 8.41373154094622
000140 e7 39 e2 61 f0 2b 60 c0 cb a9 aa 14 71 0d 78 40
       -129.37309354958344 384.8401075998815
000150 f9 8c ff 8e 46 f5 13 40 5b ad 84 a0 c0 fc 60 c0
       4.98952697214849 -135.8985140410758
000160 4e 7c 6d cb 37 68 77 40 e3 1c e7 2a 2c 20 38 40
       374.51362173812674 24.12567394392398
000170 6b 95 94 7d 28 52 45 c0 5e 9c 0d b0 c8 d3 73 40
       -42.641860673475854 317.2364960223839
000180 cf 6e 5a 0e 0f c0 3c 40 e5 a4 89 8e eb ef 3a c0
       28.750229737356502 -26.937188061337014
000190 e7 08 1f eb 11 ea 72 40 42 b6 05 0e cc f0 3d 40
       302.6293746197029 29.940613628763693
0001a0 a7 41 18 e2 40 f9 40 c0 5f 80 8f 3e 18 ef 72 40
       -33.94729257759473 302.9434190373922
0001b0 5d 5d 29 7a e2 83 43 40 e9 02 cd d8 0c dd 41 c0
       39.030349035451515 -35.7269545556099
0001c0 ab e8 d4 68 3d 04 73 40 3b 86 f3 8e 94 bb 4e 40
       304.2649925534012 61.46547114268147
0001d0 a6 24 27 dd e6 3f 26 c0 da ae 3b f8 e9 a9 72 40
       -11.124808226612299 298.619621499192
0001e0 fb 80 02 f6 ca 60 4e 40 25 16 cc 20 84 9e 13 c0
       60.756193877432416 -4.904800903755619
0001f0 03 8b 66 3d e3 ee 72 40 2f 7e 49 5f 09 8f 4e 40
       302.9304784780108 61.11747351730843
000200 20 0b e5 48 25 ca 0b 40 ad 8f e6 11 9c f1 72 40
       3.473703927507259 303.1006030088709
000210 ea d2 e4 49 8a dd 51 40 bc 1e f3 6f 6b 44 28 40
       71.46156546922762 12.133632181575528
000220 33 af 2e 34 ce e3 72 40 a9 86 19 9a 76 e7 50 40
       302.2378427337273 67.61661388867164
000230 3c 62 5c 26 35 3e 60 c0 3d 32 2b e5 0a e4 72 40
       -129.94398801845261 302.252659958587
000240 02 ad 2d 73 09 0a 50 40 3f b0 b8 9d 36 59 5f c0
       64.15682677708176 -125.39395850215895
000250 f8 d9 a6 60 e8 b2 74 40 14 75 b0 68 47 f0 4d 40
       331.1817327993044 59.87717922798234
000260 d3 bc a8 35 ce 54 5d c0 f1 a4 0d c6 13 0e 75 40
       -117.32508603552132 336.87982755021864
000270 b0 a4 97 e5 67 0c 51 40 01 92 da 2e 3b 07 5c c0
       68.1938413601772 -112.11298724503287
000280 9b 8b cc dc a1 c5 74 40 95 48 99 0a e3 00 20 c0
       332.35201721096536 -8.001732188426368
000290 e5 df cc 8c 98 4d 5d c0 9c 45 12 45 56 ae 78 40
       -117.2124359131554 394.896061965346
0002a0 69 da fe aa fb 13 23 c0 30 5d f5 e3 92 37 5e c0
       -9.539029449090963 -120.868340482343
0002b0 84 26 a1 9c c4 04 79 40
       400.2980009360256
